Model: "Improved_CNN_LSTM_Hybrid"
┏━━━━━━━━━━━━━━━━━━━━━┳━━━━━━━━━━━━━━━━━━━┳━━━━━━━━━━━━┳━━━━━━━━━━━━━━━━━━━┓
┃ Layer (type)        ┃ Output Shape      ┃    Param # ┃ Connected to      ┃
┡━━━━━━━━━━━━━━━━━━━━━╇━━━━━━━━━━━━━━━━━━━╇━━━━━━━━━━━━╇━━━━━━━━━━━━━━━━━━━┩
│ input (InputLayer)  │ (None, 42, 1)     │          0 │ -                 │
├─────────────────────┼───────────────────┼────────────┼───────────────────┤
│ conv1d_1 (Conv1D)   │ (None, 42, 64)    │        256 │ input[0][0]       │
├─────────────────────┼───────────────────┼────────────┼───────────────────┤
│ batch_norm_1        │ (None, 42, 64)    │        256 │ conv1d_1[0][0]    │
│ (BatchNormalizatio… │                   │            │                   │
├─────────────────────┼───────────────────┼────────────┼───────────────────┤
│ maxpool_1           │ (None, 21, 64)    │          0 │ batch_norm_1[0][… │
│ (MaxPooling1D)      │                   │            │                   │
├─────────────────────┼───────────────────┼────────────┼───────────────────┤
│ dropout_1 (Dropout) │ (None, 21, 64)    │          0 │ maxpool_1[0][0]   │
├─────────────────────┼───────────────────┼────────────┼───────────────────┤
│ conv1d_2 (Conv1D)   │ (None, 21, 128)   │     24,704 │ dropout_1[0][0]   │
├─────────────────────┼───────────────────┼────────────┼───────────────────┤
│ batch_norm_2        │ (None, 21, 128)   │        512 │ conv1d_2[0][0]    │
│ (BatchNormalizatio… │                   │            │                   │
├─────────────────────┼───────────────────┼────────────┼───────────────────┤
│ maxpool_2           │ (None, 10, 128)   │          0 │ batch_norm_2[0][… │
│ (MaxPooling1D)      │                   │            │                   │
├─────────────────────┼───────────────────┼────────────┼───────────────────┤
│ dropout_2 (Dropout) │ (None, 10, 128)   │          0 │ maxpool_2[0][0]   │
├─────────────────────┼───────────────────┼────────────┼───────────────────┤
│ conv1d_3 (Conv1D)   │ (None, 10, 256)   │     98,560 │ dropout_2[0][0]   │
├─────────────────────┼───────────────────┼────────────┼───────────────────┤
│ batch_norm_3        │ (None, 10, 256)   │      1,024 │ conv1d_3[0][0]    │
│ (BatchNormalizatio… │                   │            │                   │
├─────────────────────┼───────────────────┼────────────┼───────────────────┤
│ dropout_3 (Dropout) │ (None, 10, 256)   │          0 │ batch_norm_3[0][… │
├─────────────────────┼───────────────────┼────────────┼───────────────────┤
│ bidirectional_lstm… │ (None, 10, 256)   │    394,240 │ dropout_3[0][0]   │
│ (Bidirectional)     │                   │            │                   │
├─────────────────────┼───────────────────┼────────────┼───────────────────┤
│ dropout_4 (Dropout) │ (None, 10, 256)   │          0 │ bidirectional_ls… │
├─────────────────────┼───────────────────┼────────────┼───────────────────┤
│ bidirectional_lstm… │ (None, 10, 128)   │    164,352 │ dropout_4[0][0]   │
│ (Bidirectional)     │                   │            │                   │
├─────────────────────┼───────────────────┼────────────┼───────────────────┤
│ dropout_5 (Dropout) │ (None, 10, 128)   │          0 │ bidirectional_ls… │
├─────────────────────┼───────────────────┼────────────┼───────────────────┤
│ attention_layer     │ (None, 10, 128)   │          0 │ dropout_5[0][0],  │
│ (Attention)         │                   │            │ dropout_5[0][0]   │
├─────────────────────┼───────────────────┼────────────┼───────────────────┤
│ concat_attention    │ (None, 10, 256)   │          0 │ dropout_5[0][0],  │
│ (Concatenate)       │                   │            │ attention_layer[… │
├─────────────────────┼───────────────────┼────────────┼───────────────────┤
│ flatten (Flatten)   │ (None, 2560)      │          0 │ concat_attention… │
├─────────────────────┼───────────────────┼────────────┼───────────────────┤
│ dense_1 (Dense)     │ (None, 128)       │    327,808 │ flatten[0][0]     │
├─────────────────────┼───────────────────┼────────────┼───────────────────┤
│ dropout_6 (Dropout) │ (None, 128)       │          0 │ dense_1[0][0]     │
├─────────────────────┼───────────────────┼────────────┼───────────────────┤
│ dense_2 (Dense)     │ (None, 64)        │      8,256 │ dropout_6[0][0]   │
├─────────────────────┼───────────────────┼────────────┼───────────────────┤
│ dropout_7 (Dropout) │ (None, 64)        │          0 │ dense_2[0][0]     │
├─────────────────────┼───────────────────┼────────────┼───────────────────┤
│ dense_3 (Dense)     │ (None, 32)        │      2,080 │ dropout_7[0][0]   │
├─────────────────────┼───────────────────┼────────────┼───────────────────┤
│ dropout_8 (Dropout) │ (None, 32)        │          0 │ dense_3[0][0]     │
├─────────────────────┼───────────────────┼────────────┼───────────────────┤
│ output (Dense)      │ (None, 1)         │         33 │ dropout_8[0][0]   │
└─────────────────────┴───────────────────┴────────────┴───────────────────┘
 Total params: 3,064,453 (11.69 MB)
 Trainable params: 1,021,185 (3.90 MB)
 Non-trainable params: 896 (3.50 KB)
 Optimizer params: 2,042,372 (7.79 MB)

